check 0
check 1
Fp32MNIST(
  (features_maps): Sequential(
    (0): Conv2d(1, 1, kernel_size=(3, 3), stride=(1, 1))
    (1): ReLU()
    (2): BatchNorm2d(1, eps=1e-05, momentum=0.1, affine=True, track_running_stats=True)
  )
  (linears): Sequential(
    (0): Linear(in_features=784, out_features=92, bias=True)
    (1): ReLU()
    (2): BatchNorm1d(92, eps=1e-05, momentum=0.1, affine=True, track_running_stats=True)
    (3): Linear(in_features=92, out_features=92, bias=True)
    (4): ReLU()
    (5): BatchNorm1d(92, eps=1e-05, momentum=0.1, affine=True, track_running_stats=True)
    (6): Linear(in_features=92, out_features=92, bias=True)
    (7): ReLU()
    (8): BatchNorm1d(92, eps=1e-05, momentum=0.1, affine=True, track_running_stats=True)
    (9): Linear(in_features=92, out_features=92, bias=True)
    (10): ReLU()
    (11): BatchNorm1d(92, eps=1e-05, momentum=0.1, affine=True, track_running_stats=True)
    (12): Linear(in_features=92, out_features=92, bias=True)
    (13): ReLU()
    (14): BatchNorm1d(92, eps=1e-05, momentum=0.1, affine=True, track_running_stats=True)
    (15): Linear(in_features=92, out_features=92, bias=True)
    (16): ReLU()
    (17): BatchNorm1d(92, eps=1e-05, momentum=0.1, affine=True, track_running_stats=True)
    (18): Linear(in_features=92, out_features=92, bias=True)
    (19): ReLU()
    (20): BatchNorm1d(92, eps=1e-05, momentum=0.1, affine=True, track_running_stats=True)
    (21): Linear(in_features=92, out_features=92, bias=True)
    (22): ReLU()
    (23): BatchNorm1d(92, eps=1e-05, momentum=0.1, affine=True, track_running_stats=True)
    (24): Linear(in_features=92, out_features=92, bias=True)
    (25): ReLU()
    (26): BatchNorm1d(92, eps=1e-05, momentum=0.1, affine=True, track_running_stats=True)
    (27): Linear(in_features=92, out_features=92, bias=True)
    (28): ReLU()
    (29): BatchNorm1d(92, eps=1e-05, momentum=0.1, affine=True, track_running_stats=True)
    (30): Linear(in_features=92, out_features=92, bias=True)
    (31): ReLU()
    (32): BatchNorm1d(92, eps=1e-05, momentum=0.1, affine=True, track_running_stats=True)
    (33): Linear(in_features=92, out_features=92, bias=True)
    (34): ReLU()
    (35): BatchNorm1d(92, eps=1e-05, momentum=0.1, affine=True, track_running_stats=True)
    (36): Linear(in_features=92, out_features=92, bias=True)
    (37): ReLU()
    (38): BatchNorm1d(92, eps=1e-05, momentum=0.1, affine=True, track_running_stats=True)
    (39): Linear(in_features=92, out_features=92, bias=True)
    (40): ReLU()
    (41): BatchNorm1d(92, eps=1e-05, momentum=0.1, affine=True, track_running_stats=True)
    (42): Linear(in_features=92, out_features=92, bias=True)
    (43): ReLU()
    (44): BatchNorm1d(92, eps=1e-05, momentum=0.1, affine=True, track_running_stats=True)
    (45): Linear(in_features=92, out_features=92, bias=True)
    (46): ReLU()
    (47): BatchNorm1d(92, eps=1e-05, momentum=0.1, affine=True, track_running_stats=True)
    (48): Linear(in_features=92, out_features=92, bias=True)
    (49): ReLU()
    (50): BatchNorm1d(92, eps=1e-05, momentum=0.1, affine=True, track_running_stats=True)
    (51): Linear(in_features=92, out_features=92, bias=True)
    (52): ReLU()
    (53): BatchNorm1d(92, eps=1e-05, momentum=0.1, affine=True, track_running_stats=True)
    (54): Linear(in_features=92, out_features=10, bias=True)
  )
)
check 2
check 3
check 3.1
check 3.2
check 3.2
check 3.4
check 3.5
check 3.6
check 3.7: test_loader len = 156
check 3.7.1
check 3.7.2
check 3.7.3
check 3.7.4
check 3.7.5: fhe time: 62.44562602043152
check 3.7.1
check 3.7.2
check 3.7.3
check 3.7.4
check 3.7.5: fhe time: 60.991215229034424
check 3.7.1
check 3.7.2
check 3.7.3
check 3.7.4
check 3.7.5: fhe time: 60.489089012145996
…
